Model: "Generator"
_________________________________________________________________
 Layer (type)                Output Shape              Param #
=================================================================
 dense_84 (Dense)            (None, 256)               8448

 leaky_re_lu_42 (LeakyReLU)  (None, 256)               0

 dropout_42 (Dropout)        (None, 256)               0

 dense_85 (Dense)            (None, 512)               131584

 leaky_re_lu_43 (LeakyReLU)  (None, 512)               0

 dropout_43 (Dropout)        (None, 512)               0

 dense_86 (Dense)            (None, 1024)              525312

 leaky_re_lu_44 (LeakyReLU)  (None, 1024)              0

 dropout_44 (Dropout)        (None, 1024)              0

 dense_87 (Dense)            (None, 31)                31775

=================================================================
Total params: 697,119
Trainable params: 697,119
Non-trainable params: 0
_________________________________________________________________
Model: "Critic"
_________________________________________________________________
 Layer (type)                Output Shape              Param #
=================================================================
 dense_88 (Dense)            (None, 1024)              32768

 leaky_re_lu_45 (LeakyReLU)  (None, 1024)              0

 dense_89 (Dense)            (None, 512)               524800

 leaky_re_lu_46 (LeakyReLU)  (None, 512)               0

 dense_90 (Dense)            (None, 256)               131328

 leaky_re_lu_47 (LeakyReLU)  (None, 256)               0

 dense_91 (Dense)            (None, 1)                 257

=================================================================
Total params: 689,153
Trainable params: 689,153
Non-trainable params: 0
_________________________________________________________________
Model: "Classifier"
_________________________________________________________________
 Layer (type)                Output Shape              Param #
=================================================================
 dense_92 (Dense)            (None, 128)               4096

 re_lu_21 (ReLU)             (None, 128)               0

 dropout_45 (Dropout)        (None, 128)               0

 dense_93 (Dense)            (None, 256)               33024

 re_lu_22 (ReLU)             (None, 256)               0

 dropout_46 (Dropout)        (None, 256)               0

 dense_94 (Dense)            (None, 128)               32896

 re_lu_23 (ReLU)             (None, 128)               0

 dropout_47 (Dropout)        (None, 128)               0

 dense_95 (Dense)            (None, 15)                1935

 softmax_7 (Softmax)         (None, 15)                0

=================================================================
Total params: 71,951
Trainable params: 71,951
Non-trainable params: 0
_________________________________________________________________
===================xbatch=================
[[ 0.24958685  0.15175256 -0.39303164 ... -0.03046556  0.04775535
   0.02977356]
 [-0.70026152 -0.01430811  0.07115356 ...  0.02771785 -0.02919377
…
